Loading model: meta-llama/Llama-Guard-4-12B...
This is model:  Llama4ForConditionalGeneration(
  (vision_model): Llama4VisionModel(
    (patch_embedding): Llama4UnfoldConvolution(
      (unfold): Unfold(kernel_size=(14, 14), dilation=1, padding=0, stride=14)
      (linear): Linear(in_features=588, out_features=1408, bias=False)
    )
    (rotary_embedding): Llama4VisionRotaryEmbedding()
    (layernorm_pre): LayerNorm((1408,), eps=1e-05, elementwise_affine=True)
    (layernorm_post): LayerNorm((1408,), eps=1e-05, elementwise_affine=True)
    (model): Llama4VisionEncoder(
      (layers): ModuleList(
        (0-33): 34 x Llama4VisionEncoderLayer(
          (self_attn): Llama4VisionAttention(
            (q_proj): Linear(in_features=1408, out_features=1408, bias=True)
            (k_proj): Linear(in_features=1408, out_features=1408, bias=True)
            (v_proj): Linear(in_features=1408, out_features=1408, bias=True)
            (o_proj): Linear(in_features=1408, out_features=1408, bias=True)
          )
          (mlp): Llama4VisionMLP(
            (activation_fn): GELU(approximate='none')
            (fc1): Linear(in_features=1408, out_features=5632, bias=True)
            (fc2): Linear(in_features=5632, out_features=1408, bias=True)
          )
          (input_layernorm): LayerNorm((1408,), eps=1e-05, elementwise_affine=True)
          (post_attention_layernorm): LayerNorm((1408,), eps=1e-05, elementwise_affine=True)
        )
      )
    )
    (vision_adapter): Llama4VisionPixelShuffleMLP(
      (mlp): Llama4VisionMLP2(
        (fc1): Linear(in_features=5632, out_features=4096, bias=False)
        (fc2): Linear(in_features=4096, out_features=4096, bias=False)
        (activation_fn): GELU(approximate='none')
      )
    )
  )
  (multi_modal_projector): Llama4MultiModalProjector(
    (linear_1): Linear(in_features=4096, out_features=5120, bias=False)
  )
  (language_model): Llama4ForCausalLM(
    (model): Llama4TextModel(
      (embed_tokens): Embedding(202048, 5120, padding_idx=200018)
      (layers): ModuleList(
        (0-47): 48 x Llama4TextDecoderLayer(
          (self_attn): Llama4TextAttention(
            (q_proj): Linear(in_features=5120, out_features=5120, bias=False)
            (k_proj): Linear(in_features=5120, out_features=1024, bias=False)
            (v_proj): Linear(in_features=5120, out_features=1024, bias=False)
            (o_proj): Linear(in_features=5120, out_features=5120, bias=False)
            (qk_norm): Llama4TextL2Norm(eps=1e-05)
          )
          (feed_forward): Llama4TextMLP(
            (gate_proj): Linear(in_features=5120, out_features=8192, bias=False)
            (up_proj): Linear(in_features=5120, out_features=8192, bias=False)
            (down_proj): Linear(in_features=8192, out_features=5120, bias=False)
            (activation_fn): SiLUActivation()
          )
          (input_layernorm): Llama4TextRMSNorm((5120,), eps=1e-05)
          (post_attention_layernorm): Llama4TextRMSNorm((5120,), eps=1e-05)
        )
      )
      (norm): Llama4TextRMSNorm((5120,), eps=1e-05)
      (rotary_emb): Llama4TextRotaryEmbedding()
    )
    (lm_head): Linear(in_features=5120, out_features=202048, bias=False)
  )
)
--------------------------------------------------------------------------------
Running Test Case 1/7...

[DEBUG HF] Input Pixels
  Shape: torch.Size([16, 3, 336, 336])
  Mean:  -0.0001 | Std: 0.5828
  Head: [-0.9688, -0.9688, -0.9766, -0.9766, -0.9844, -0.9844, -0.9922, -0.9922, -1.0, -1.0]
  Tail: [-0.4805, -0.5078, -0.4727, -0.4258, -0.3711, -0.3711, 0.1016, -0.2148, -0.5703, -0.5781]
…
